tensor.pt (torch, 82767 bytes, 6 tensors)

fc1.weight f4 [128, 7]
-0.0028297603 0.20275661 -0.31108183 -0.27815878 -0.14557466 0.10135394 -0.007488668 0.5142579
0.627043 1.0511732 0.8659385 0.64713424 -0.042290784 -0.3231806 -0.047549874 -0.4351851
-0.32296208 0.008830211 0.009451851 0.30100924 0.47305316 0.48589844 0.4335578 1.0859709
0.7910698 0.7607764 0.72263163 -0.3443846 0.017179728 -0.81629914 -0.8008746 -0.29089528
-0.015277786 0.10716428 0.050614502 -0.095219225 -0.5859396 -0.12282683 0.035312533 0.4801826
0.46225065 0.19682612 0.08442683 -0.22499356 -0.49002922 -0.51146156 -0.6383745 -0.7332339
-0.7317923 0.017179728 0.71347135 0.46562 0.04893561 -0.86438733 -0.8540418 -0.86247087
0.05279649 -0.10231276 -0.4028878 -0.4312472 -0.708464 -0.90346664 -0.8833094 0.24995461
0.77734566 0.8341266 0.95429134 0.82026714 0.5465935 0.29380688 -0.29126832 -0.13851254
0.1485438 0.3310389 0.33169937 0.41998392 0.075220436 -0.32867134 0.034769893 -0.23645659
-0.35224554 0.33817276 0.3541355 -0.37703013 0.055944502 0.1812871 -0.15583554 -0.36704612
-0.7323282 -1.2935399 -0.57056695 0.35473463 0.9132682 1.0749437 0.6097478 0.47482246
0.4957297 -0.013320937 -0.32853097 -0.33423734 0.07103782 0.109742075 -0.06759836 0.12949957
-0.27574298 0.15142141 -0.52943027 -0.22526874 0.05708286 0.93859905 0.8258427 0.93604714
-0.07357467 -0.15423651 -0.1500968 -0.20214498 0.1888611 0.4536983 0.44586706 0.05475108
0.4402851 -0.015217105 -0.3301925 -0.712542 -1.4646655 -0.9422083 0.027487665 -0.16312629
-0.40448445 -0.74749064 -0.8871894 -0.7802031 -0.57334185 0.2042547 0.0411041 0.039666887
0.16319655 0.8770259 1.0292622 0.92747515 0.70994955 1.6274542 1.7773118 1.2564287
0.09489852 -0.21147466 0.06508164 -0.0024501383 -0.18786585 -0.2896386 -0.35371882 -0.3190051
-0.07666507 0.20727798 0.39860362 0.48846802 1.3593887 0.82389516 0.61406845 0.070293985
-0.21503648 0.06505064 -1.0340515 -1.2471648 -1.017927 -0.60767686 -0.348383 0.42841497
-0.08082215 -0.40495464 -0.07597817 -0.1687668 0.64405066 0.60827583 -0.07210694 0.39179537
0.5985931 0.788881 1.3302072 0.46012917 0.31994885 -0.21473074 0.5216889 -0.04397832
-0.326977 -0.44932708 -0.8204681 -0.3244544 -0.36809653 0.21976367 0.44479862 0.07214385
-0.55248445 -0.8301667 -1.1995944 -0.7756276 0.038117517 -0.7661759 -1.0530145 -0.7256133
-0.15777208 0.34445736 0.0005673529 -0.25947723 -0.21946943 0.26454994 -0.135865 0.31880876
0.13667479 0.047860146 0.039194636 0.22914088 0.034112535 -0.19722968 -0.87432444 -1.0600998
-0.9678003 -0.19810306 0.32802305 -0.3067358 -0.0271402 0.41454664 0.13653478 0.0107013285
-0.07143618 -0.38575712 -0.6834826 -0.2882247 -0.06338686 0.27301934 0.25885683 0.47089392
0.93892235 1.5366825 1.4487729 0.48469174 0.31369063 -0.48912698 -0.07058787 -0.46352416
-0.35734832 -0.00056535535 0.14742562 0.50000095 0.5239557 -0.36552647 0.27326098 -0.3125473
0.005209297 -0.064260304 -0.19906366 0.049955964 0.46646416 0.39820808 0.57722276 0.7195529
00000000: 8073 39bb 6e9f 4f3e 1e46 9fbe d46a 8ebe
00000010: 8611 15be a892 cf3d 8063 f5bb 68a6 033f
00000020: e485 203f d88c 863f 25ae 5d3f 97aa 253f
00000030: 1a39 2dbd ed77 a5be a8c3 42bd 95d0 debe
00000040: 495b a5be 97ac 103c f0db 1a3c e21d 9a3e
00000050: 0634 f23e aec7 f83e 4afb dd3e 1801 8b3f
00000060: 8d83 4a3f 3ec2 423f 63fe 383f 2e53 b0be
00000070: 80bc 8c3c fbf8 50bf 1e06 4dbf 3af0 94be
00000080: ae4f 7abc f278 db3d 2751 4f3d 4c02 c3bd
00000090: 2300 16bf a28c fbbd e0a3 103d 7eda f53e
000000a0: 1eac ec3e c98c 493e f9e7 ac3d b664 66be
000000b0: 1ce5 fabe 25ef 02bf 836c 23bf 38b5 3bbf
000000c0: bd56 3bbf 80bc 8c3c 0fa6 363f bf65 ee3e
000000d0: b570 483d 7d48 5dbf 7ca2 5abf e4ca 5cbf
000000e0: 2241 583d 5a89 d1bd 4f47 cebe 6fcc dcbe
000000f0: e65d 35bf 9749 67bf 9120 62bf 1af4 7f3e
00000100: 2000 473f 5289 553f 704c 743f 07fd 513f
00000110: 8ded 0b3f db6d 963e 1f21 95be 3bd6 0dbe
00000120: de1b 183e ee7d a93e 80d4 a93e 2208 d73e
00000130: 2c0d 9a3d 9c47 a8be e06a 0e3d ad21 72be
00000140: 8759 b4be fb24 ad3e 4051 b53e 180a c1be
00000150: 1026 653d 53a3 393e 5a93 1fbe 78ed bbbe
00000160: dc79 3bbf b792 a5bf ad10 12bf c79f b53e
00000170: f2cb 693f c197 893f 6f18 1c3f ee1b f33e
00000180: 49d0 fd3e 0f40 5abc 3635 a8be 2821 abbe
00000190: 477c 913d 74c0 e03d 0271 8abd 899b 043e
000001a0: 2f2e 8dbe 370e 1b3e be88 07bf d9ac 66be
000001b0: b8cf 693d 0748 703f 6d6a 533f c9a0 6f3f
000001c0: 51ae 96bd 2df0 1dbe fab2 19be 18ff 4ebe
000001d0: ce64 413e 254b e83e b048 e43e ab42 603d
000001e0: 0c6d e13e 2a51 79bc fe0e a9be 2769 36bf
000001f0: 297a bbbf 9034 71bf d02d e13c 940a 27be
00000200: 9618 cfbe 8c5b 3fbf d81e 63bf 64bb 47bf
00000210: 88c6 12bf 2528 513e c65c 283d bf79 223d
00000220: ff1c 273e c584 603f ddbe 833f 036f 6d3f
00000230: 41bf 353f 6b50 d03f f47e e33f a8d2 a03f
00000240: 285a c23d d08c 58be 8649 853d 8092 20bb
00000250: e85f 40be 834b 94be a21a b5be a354 a3be
00000260: 9402 9dbd ae40 543e c615 cc3e 7b18 fa3e
00000270: 7300 ae3f cbea 523f 9733 1d3f 4bf6 8f3d
00000280: 8632 5cbe 4539 853d cd5b 84bf 19a3 9fbf
00000290: 6f4b 82bf b690 1bbf 425f b2be 3559 db3e
000002a0: 1586 a5bd 3756 cfbe 719a 9bbd 34d1 2cbe
000002b0: 81e0 243f f7b7 1b3f ceac 93bd 6799 c83e
000002c0: 663d 193f 1bf4 493f 3b44 aa3f 0d96 eb3e
000002d0: 56d0 a33e 60e2 5bbe 678d 053f 9c22 34bd
000002e0: 8869 a7be 330e e6be 330a 52bf e31e a6be
000002f0: 2677 bcbe ba09 613e a5bc e33e 28c0 933d
00000300: 9f6f 0dbf ce85 54bf 4f8c 99bf 888f 46bf
00000310: 1d21 1c3d 1b24 44bf 2ec9 86bf cbc1 39bf
00000320: 018f 21be b75c b03e 69ba 143a 33da 84be
00000330: 98bc 60be 1773 873e 3220 0bbe e73a a33e
00000340: 7af4 0b3e 0009 443d 8e8a 203d e8a3 6a3e
00000350: 96b9 0b3d 94f6 49be bad3 5fbf 5ab1 87bf
00000360: c3c1 77bf 87db 4abe a3f2 a73e 7a0c 9dbe
00000370: 2055 debc 753f d43e c6cf 0b3e a054 2f3c
00000380: 224d 92bd f581 c5be b7f8 2ebf 3092 93be
00000390: f8d0 81bd 31c9 8b3e e288 843e 0219 f13e
000003a0: 375d 703f 03b2 c43f 6471 b93f 8429 f83e
000003b0: 0f9c a03e da6e fabe 6090 90bd 0a53 edbe
000003c0: 5cf6 b6be 5b34 14ba bef6 163e 1000 003f
000003d0: f621 063f 4926 bbbe dde8 8b3e 3306 a0be
000003e0: c0b2 aa3b e89a 83bd 58d7 4bbe a09e 4c3d
000003f0: 64d4 ee3e eee1 cb3e dfc4 133f 9e34 383f

fc1.bias f4 [128]
-0.33506086 0.8393463 0.5407481 0.83400023 0.5225813 0.8508784 0.21932584 0.34193283
0.056405667 0.64174277 -0.20188406 -0.07457397 -0.23820956 0.5835833 0.5811547 0.39049008
0.52716947 -0.11228128 0.2765627 0.57390004 0.81649846 -0.27435714 1.1136571 0.11092825
0.669688 0.35467795 -0.03026803 0.13280435 0.3363915 -0.34194863 0.07856212 -0.25090343
0.75324905 0.9833385 0.7491308 -0.37266994 0.32141614 0.70659363 0.23960808 0.034256835
0.24458173 0.44699514 0.19964892 -0.5514446 0.038930606 0.5547889 0.34226668 0.59337753
-0.27192217 0.034282576 -0.35824394 0.3896061 0.29117712 0.44849527 0.442758 0.6408407
-0.30901185 0.4419302 1.0275646 0.06584915 -0.04002338 -0.11570425 0.22874406 0.5193921
-0.32163256 0.11831885 0.18443437 -0.37494206 -0.3758449 0.08834846 0.22632532 0.09293476
1.0925168 0.34237388 0.10423736 0.54897803 0.4747746 0.07684856 0.20909621 0.51498353
0.7287871 0.41356942 -0.37604928 0.41400498 0.6751466 -0.5812986 0.56045157 0.08260765
0.92567843 -0.24005596 -0.4644119 0.23241399 0.28516948 0.69015163 0.20579542 1.1288922
0.060025197 0.32736316 0.630118 0.856206 0.2270805 -0.06463743 0.68998104 0.2813241
0.8492375 0.47878227 0.27224278 -0.31690362 0.07606303 0.6926504 -0.3349921 -0.20813276
-0.092290044 -0.33165333 -0.018688176 0.9053104 0.19086602 -0.43866292 -0.014506929 0.26649877
0.2708709 0.26892778 -0.15063524 1.219427 0.17959476 -0.39473662 -0.18352054 0.883776
00000000: 198d abbe 66df 563f 786e 0a3f 0a81 553f
00000010: e3c7 053f 2bd3 593f f496 603e d211 af3e
00000020: a109 673d 4149 243f b2ba 4ebe 3dba 98bd
00000030: 35ed 73be b765 153f 8ec6 143f 51ee c73e
00000040: 94f4 063f baf3 e5bd a099 8d3e 1deb 123f
00000050: 0b06 513f 8a78 8cbe 518c 8e3f 5a2e e33d
00000060: ac70 2b3f 5998 b53e a9f4 f7bc ddfd 073e
00000070: 823b ac3e e413 afbe 2de5 a03d 6a76 80be
00000080: eed4 403f 12bc 7b3f 09c7 3f3f 98ce bebe
00000090: a890 a43e 52e3 343f d25b 753e e550 0c3d
000000a0: a273 7a3e 8cdc e43e c470 4c3e 792b 0dbf
000000b0: b375 1f3d a506 0e3f 943d af3e 97e7 173f
000000c0: 6239 8bbe e36b 0c3d c06b b7be 737a c73e
000000d0: 2b15 953e 2ca1 e53e 2db1 e23e 230e 243f
000000e0: cd36 9ebe ad44 e23e 3d87 833f ebdb 863d
000000f0: 8eef 23bd 5af6 ecbd e23b 6a3e e1f6 043f
00000100: 06ad a4be 2751 f23d 5ddc 3c3e 68f8 bfbe
00000110: be6e c0be 0af0 b43d d3c1 673e 9454 be3d
00000120: 97d7 8b3f a14b af3e 667a d53d d389 0c3f
00000130: a815 f33e c762 9d3d 511d 563e f6d5 033f
00000140: cb91 3a3f 5fbf d33e 8889 c0be 76f8 d33e
00000150: 68d6 2c3f fccf 14bf c179 0f3f 332e a93d
00000160: 43f9 6c3f 3bd1 75be 66c7 edbe effd 6d3e
00000170: bc01 923e c7ad 303f 09bc 523e 8a7f 903f
00000180: fbdc 753d 259c a73e 6a4f 213f 5130 5b3f
00000190: ca87 683e a160 84bd 99a2 303f b609 903e
000001a0: a167 593f f322 f53e 6863 8b3e 3141 a2be
000001b0: efc6 9b3d 8951 313f 1684 abbe c120 55be
000001c0: 9002 bdbd 77ce a9be f217 99bc 6cc2 673f
000001d0: 6272 433e 6d98 e0be 78ae 6dbc 8772 883e
000001e0: 97af 8a3e e7b0 893e 2040 1abe 2f16 9c3f
000001f0: b0e7 373e eb1a cabe cfec 3bbe 253f 623f

fc2.weight f4 [128, 128]
-0.006193012 -0.083482675 -0.050963398 0.03584438 -0.02997918 0.061008207 0.06987452 0.012857847
-0.0069892853 -0.02805686 -0.004469432 0.016088523 -0.06751553 -0.02112443 -0.07352151 0.054248773
-0.056288905 0.08074663 -0.022784814 -0.050635498 0.042466454 0.013176851 0.061205037 0.036899455
-0.08514798 0.055904783 -0.016644746 -0.039065093 0.056131355 0.06446429 -0.07768723 -0.007992372
0.07258508 0.03423164 0.07446448 -0.03029057 -0.04875876 0.07600599 0.036842294 0.08485127
-0.03691951 -0.056751225 -0.010360256 -0.08322469 0.034646034 0.06519421 0.021218233 -0.008733377
0.043823503 -0.05610462 0.08646529 -0.08788839 -0.08467119 -0.02088631 0.07219953 0.008849956
0.033945166 -0.064789265 0.032233976 -0.009876817 0.035428137 0.06242361 0.03842067 -0.007518679
-0.005444646 -0.055435423 -0.031970248 0.057438113 -0.03544342 0.05489268 -0.0350488 -0.020585544
0.0018811002 -0.08111093 -0.0008825585 -0.008909166 -0.007940486 -0.0176692 0.069683366 0.06522947
-0.059905842 0.041058756 -0.069330275 -0.075246885 0.027018718 0.0012989938 -0.041233726 -0.08525089
-0.03421832 0.029521666 -0.08181238 -0.08586623 0.011214055 -0.06367533 -0.077435285 -0.034054812
-0.0142306015 -0.08031895 -0.05901935 0.005795434 -0.08334771 -0.012423374 -0.057072595 -0.061274096
0.03473936 -0.068031594 -0.066983715 0.05040624 0.016525641 0.08049641 -0.023625806 -0.042692903
-0.00818003 0.0004471913 0.06740887 -0.08804186 -0.0062933117 0.039098777 -0.04867396 -0.044913724
0.042715244 -0.0846924 0.020944126 -0.06842907 0.043934472 -0.07557561 0.054341577 -0.083671294
-0.0742963 -0.005727525 0.46211573 -0.078541115 0.47878286 0.52956134 0.11885739 -0.36232635
0.08323885 -0.053360365 0.04054928 0.15411516 0.13205284 -0.07693029 0.20490134 0.12468959
0.28946215 -0.04470944 0.28782988 0.14767268 -0.07814234 -0.062962845 -0.03680601 0.6132748
0.4707923 -0.037562888 0.019694326 -0.020798823 0.60438466 -0.035581023 0.025661256 -0.12139994
0.3231892 -0.11655335 0.4095759 0.06887869 0.077504046 0.43022212 0.11079519 0.06648124
-0.16832812 0.020531131 0.17954601 -0.034505814 0.13639662 -0.051931713 0.41776395 0.43893078
0.033782665 0.10246651 0.08218839 -0.07544065 -0.008571297 0.008530133 -0.06952155 0.0752075
-0.0078063533 -0.085451566 -0.027706765 0.07843313 -0.07407176 0.0030850437 0.49148774 0.34161744
-0.16610935 0.090320714 -0.16256836 0.021918416 0.06524692 0.009715252 0.065098815 0.25693536
-0.04102129 0.09819637 -0.025481071 0.4344215 0.7045698 0.04273316 0.35277918 0.5395908
0.50281435 -0.4048728 0.044048823 0.48399797 0.05119238 -0.007923853 0.42632604 0.19724227
-0.10461174 0.060338363 0.07301852 0.15272377 0.1474043 0.22807106 0.5185208 -0.03306593
-0.12444817 0.4236755 -0.040531777 0.08481135 0.59985363 -0.03857213 0.06590302 0.5362296
0.022248473 -0.090577886 0.078429505 0.0755242 0.14515832 0.07247182 0.12088724 -0.12202665
0.029001921 0.04788766 0.17643239 0.08406526 0.09779131 0.07997406 -0.11556648 0.724718
-0.21814987 -0.0008959025 0.055209193 -0.043371838 0.10337431 -0.011574995 -0.006316654 0.07478136
00000000: c0ee cabb f7f8 aabd ffbe 50bd 8ed1 123d
00000010: e696 f5bc bee3 793d 5f1a 8f3d b8a9 523c
00000020: 6006 e5bb 80d7 e5bc 5074 92bb 14cc 833c
00000030: 9545 8abd 240d adbc 7292 96bd f633 5e3d
00000040: 328f 66bd 7d5e a53d 38a7 babc 2b67 4fbd
00000050: 4ef1 2d3d b8e3 573c 22b2 7a3d e223 173d
00000060: 1062 aebd 6afc 643d 905a 88bc b802 20bd
00000070: fee9 653d db05 843d 7c1a 9fbd 70f2 02bc
00000080: 7da7 943d 7a36 0c3d d580 983d ee23 f8bc
00000090: 44b7 47bd 07a9 9b3d f2e7 163d 81c6 ad3d
000000a0: ea38 17bd f973 68bd 10be 29bc b571 aabd
000000b0: 00e9 0d3d 8b84 853d dcd1 ad3c 7016 0fbc
000000c0: 4680 333d f5cd 65bd b714 b13d d4fe b3bd
000000d0: 1768 adbd c419 abbc 59dd 933d 68ff 103c
000000e0: 160a 0b3d 3cb0 84bd c607 043d 60d2 21bc
000000f0: 181d 113d e6af 7f3d fe5e 1d3d 405f f6bb
00000100: 0069 b2bb 4110 63bd 3cf3 02bd 3a44 6b3d
00000110: 1f2d 11bd 26d7 603d 558f 0fbd 04a3 a8bc
00000120: 408f f63a 7d1d a6bd 805b 67ba c0f7 11bc
00000130: d018 02bc 00bf 90bc 27b6 8e3d 0797 853d
00000140: d45f 75bd 3a2d 283d 08fd 8dbd 0a1b 9abd
00000150: 5c56 dd3c 0043 aa3a b2e4 28bd 0598 aebd
00000160: 8228 0cbd 6cd7 f13c 408d a7bd a2da afbd
00000170: 28bb 373c 3668 82bd 6496 9ebd 0f7d 0bbd
00000180: 7827 69bc 437e a4bd 46be 71bd a0e7 bd3b
00000190: 34b2 aabd 688b 4bbc f4c4 69bd 8cfa 7abd
000001a0: dc4a 0e3d 2654 8bbd c22e 89bd c676 4e3d
000001b0: c860 873c 4ddb a43d e88a c1bc c1de 2ebd
000001c0: 8805 06bc 0075 ea39 a90d 8a3d 4a4f b4bd
000001d0: 2038 cebb 0a26 203d 595e 47bd 74f7 37bd
000001e0: 2ef6 2e3d 3673 adbd 0493 ab3c 8a24 8cbd
000001f0: a2f4 333d 63c7 9abd 4695 5e3d db5b abbd
00000200: a928 98bd f6ad bbbb 6f9a ec3e 2ada a0bd
00000210: 0723 f53e 5591 073f 816b f33d d782 b9be
00000220: 2179 aa3d 6690 5abd 0017 263d 5dd0 1d3e
00000230: dc38 073e a18d 9dbd a8d1 513e 415d ff3d
00000240: 6234 943e 3f21 37bd 705e 933e 8237 173e
00000250: 1709 a0bd aaf2 80bd e6c1 16bd 94ff 1c3f
00000260: b00b f13e 8bdb 19bd ff55 a13c 4b62 aabc
00000270: f4b8 1a3f 68bd 11bd 8e37 d23c 88a0 f8bd
00000280: 0e79 a53e 86b3 eebd efb3 d13e 4510 8d3d
00000290: 71ba 9e3d 1346 dc3e 97e8 e23d 5127 883d
000002a0: 355e 2cbe e730 a83c e9da 373e f855 0dbd
000002b0: 8eab 0b3e 59b6 54bd 28e5 d53e 89bb e03e
000002c0: b15f 0a3d f6d9 d13d 6352 a83d a180 9abd
000002d0: a06e 0cbc f9c1 0b3c 5061 8ebd 6406 9a3d
000002e0: 70cc ffbb 3b01 afbd 4cf9 e2bc 8da1 a03d
000002f0: efb2 97bd 722e 4a3b 48a4 fb3e 7be8 ae3e
00000300: 9218 2abe 11fa b83d 5278 26be 408e b33c
00000310: 2da0 853d b82c 1f3c 8752 853d 088d 833e
00000320: f105 28bd 2e1b c93d aebd d0bc 7f6c de3e
00000330: b05e 343f f708 2f3d 799f b43e 9f22 0a3f
00000340: 71b8 003f 7d4b cfbe 8a6c 343d 95ce f73e
00000350: 1aaf 513d 0cd3 01bc 6847 da3e e1f9 493e
00000360: ae3e d6bd 5c25 773d bc8a 953d 9f63 1c3e
00000370: 27f1 163e 768b 693e c7bd 043f 2470 07bd
00000380: afde febd ffeb d83e a604 26bd 93b1 ad3d
00000390: 0290 193f cffd 1dbd 2af8 863d 5846 093f
000003a0: 6e42 b63c e680 b9bd a69f a03d 6fac 9a3d
000003b0: 62a4 143e 1b6c 943d bb93 f73d 1ce9 f9bd
000003c0: 7095 ed3c da25 443d b1aa 343e 682a ac3d
000003d0: cf46 c83d 71c9 a33d 1eae ecbd 1e87 393f
000003e0: ae62 5fbe 00db 6aba 0923 623d aba6 31bd
000003f0: e9b5 d33d 0ca5 3dbc effb cebb f826 993d

fc2.bias f4 [128]
0.017073438 -0.32745242 0.82669127 -0.23669863 -0.20223251 0.759469 0.4857034 0.2218119
-0.08452477 -0.30200806 0.044198606 0.83210146 -0.07491402 -0.0016404173 -0.35456577 0.18772149
-0.27592564 -0.14427368 -0.08032494 0.01414261 -0.16879892 -0.16119808 -0.18506946 0.012194457
0.04384196 0.81861943 0.52081144 -0.15827268 0.81048775 -0.2453505 0.022738025 -0.037036087
-0.12044461 -0.20331776 0.025634922 -0.104024924 -0.023517027 0.85885704 -0.19531593 -0.26358178
-0.095282026 0.0052336026 -0.30807605 0.028062332 -0.34645048 -0.16291243 -0.3729671 0.86560786
-0.35490873 -0.070478424 0.9132432 0.059326474 -0.066027686 -0.3005876 0.21367362 -0.21959288
-0.04599714 -0.22462276 -0.27853537 -0.40953517 -0.39925963 -0.014851873 -0.08128383 0.022966325
-0.2710362 -0.10484755 -0.16077095 0.016145369 0.07651643 -0.07636527 0.04861913 0.82108
-0.27558255 -0.06354571 0.8983401 0.8181005 -0.27512717 0.8475164 -0.2603927 -0.18963589
0.006474005 -0.05717967 0.594594 0.08367213 -0.37163737 -0.30942598 -0.10017924 0.6846171
-0.3567351 -0.2060164 0.030069418 -0.027316395 -0.07627176 -0.27679545 -0.08307653 0.03655755
0.7687747 0.6734276 0.04604528 -0.28386012 0.70895344 -0.21037675 -0.08018819 -0.15682979
0.07864346 0.64625496 -0.20967643 -0.19743736 -0.035644334 -0.0080115795 0.29761782 0.84287095
-0.07621872 -0.14768355 0.017565073 -0.05755672 0.048965715 -0.17886521 -0.2726212 -0.05005778
0.5870733 0.8490036 0.7752867 0.076172546 -0.015747096 -0.2699584 0.026069818 -0.22905318
00000000: 98dd 8b3c d8a7 a7be 0aa2 533f 2061 72be
00000010: 0a16 4fbe 8f6c 423f 1eae f83e a922 633e
00000020: 531b adbd cda0 9abe 9909 353d 9a04 553f
00000030: 866c 99bd 4503 d7ba a589 b5be 103a 403e
00000040: 2046 8dbe 7bbc 13be 6781 a4bd 68b6 673c
00000050: a0d9 2cbe 1c11 25be d982 3dbe 43cb 473c
00000060: a193 333d 0b91 513f e653 053f 3c12 22be
00000070: 207c 4f3f 293d 7bbe 1845 ba3c 27b3 17bd
00000080: aaab f6bd 8832 50be 5400 d23c 050b d5bd
00000090: c8a6 c0bc 0ede 5b3f e600 48be 31f4 86be
000000a0: 3923 c3bd a47e ab3b 25bc 9dbe fae2 e53c
000000b0: f561 b1be 84d2 26be 8bf5 bebe 7a98 5d3f
000000c0: 99b6 b5be fe56 90bd 4eca 693f 5100 733d
000000d0: 8639 87bd 9ee6 99be 42cd 5a3e f5dc 60be
000000e0: 7f67 3cbd 8203 66be 309c 8ebe 98ae d1be
000000f0: c26b ccbe 4555 73bc 2378 a6bd e023 bc3c
00000100: 42c5 8abe 50ba d6bd 24a1 24be 4b43 843c
00000110: a5b4 9c3d 6565 9cbd da24 473d 4d32 523f
00000120: 2819 8dbe 4124 82bd 9ef9 653f 096f 513f
00000130: 78dd 8cbe d6f6 583f 3152 85be e92f 42be
00000140: e423 d43b 3b35 6abd 5037 183f 4b5c ab3d
00000150: 4147 bebe 156d 9ebe c62a cdbd 1143 2f3f
00000160: fca5 b6be f7f5 52be 2454 f63c a2c6 dfbc
00000170: 5e34 9cbd 22b8 8dbe 0724 aabd 5fbd 153d
00000180: 6bce 443f c065 2c3f fa99 3c3d 1d56 91be
00000190: f97d 353f 016d 57be b539 a4bd fd97 20be
000001a0: d30f a13d f770 253f 6bb5 56be 052d 4abe
000001b0: cbff 11bd 0043 03bc 5d61 983e 64c6 573f
000001c0: 8f18 9cbd 5b3a 17be a1e4 8f3c 98c0 6bbd
000001d0: 4690 483d 7128 37be 0295 8bbe 6309 4dbd
000001e0: 704a 163f 4d58 593f 3079 463f 5a00 9c3d
000001f0: 0e00 81bc fd37 8abe 5f90 d53c eb8c 6abe

fc3.weight f4 [21, 128]
-0.06636861 -0.39175507 0.15794174 -0.74562943 -0.1391592 0.17151189 0.53362715 0.026411735
0.059868798 -0.25697654 -0.04565365 0.22748981 0.03613899 -0.086742155 -0.78313357 0.013239814
-0.56194675 -0.28051808 0.06841367 0.05488459 -0.32983705 -0.4213079 -0.1997097 0.0029460639
-0.056862444 0.2752405 0.10778573 -0.5173666 0.17622909 -0.17329347 -0.03852341 -0.0056939805
-0.13939759 -0.15582994 -0.05034521 -0.17054774 -0.018690307 0.2385942 -0.17061913 -0.33969608
-0.41363207 -0.11494654 -0.23698021 -0.021229131 -0.5050588 -0.26609853 -0.5537181 0.26131836
-0.5398804 -0.15281585 0.16611291 0.007007651 0.010715604 -0.31035292 0.093997404 -0.3710659
-0.05648709 -0.7333228 -0.1967222 -0.48504704 -0.35902593 0.036328312 -0.11753082 -0.080182575
-0.21606676 -0.13669446 -0.15443556 -0.055734493 -0.034761287 0.08308879 0.0488453 0.16611601
-0.23295139 -0.03490551 0.17612125 0.14297932 -0.3683884 0.17533253 -0.23106124 -0.20948485
-0.08430252 0.025456654 0.60050976 0.03501112 -0.44866845 -0.45540336 -0.11519354 0.20790619
-0.31289896 -0.14457618 -0.0058680177 -0.1634282 -0.18943612 -0.23991437 0.044877354 -0.03240327
0.2409808 0.16681612 0.023263637 -0.57651174 0.11472262 -0.3921609 -0.16310793 -0.26335654
0.022776095 0.45534584 -0.42633423 -0.44681948 -0.054782506 0.05501511 0.07900358 0.22661209
-0.17058834 -0.41920844 -0.014168061 0.030789645 0.06170868 -0.23074704 -0.22889753 0.07374116
0.22322334 0.18543069 0.17203672 0.019441783 -0.07195137 -0.3253242 -0.044314507 -0.5387203
0.057711296 -0.4433993 0.20153295 -0.5993149 -0.18610126 0.23716915 0.5288854 -0.041978456
-0.022297626 -0.49632385 0.009759754 0.15233538 0.08034029 0.029645411 -0.52266866 0.0060942527
-0.52157766 -0.28231868 0.00051292777 -0.08123779 -0.3560644 -0.5854993 -0.07557741 0.0685735
-0.09998884 0.15866597 0.15078606 -0.3881103 0.22367291 -0.035870045 -0.0025662929 -0.07190152
-0.11148185 -0.13990572 0.021099143 -0.033119537 -0.020244002 0.22745484 -0.32370332 -0.2703966
-0.39168894 -0.07350308 -0.2193057 0.012468482 -0.50793 -0.42377144 -0.47543275 0.106279075
-0.40185705 -0.55558544 0.094699234 -0.06964127 0.03477507 -0.15186013 -0.08824196 -0.46461278
-0.1324649 -0.5009828 -0.07014308 -0.5245268 -0.15160194 0.06506521 -0.016242439 -0.07180402
-0.18255456 -0.22631796 -0.03728289 0.019188266 -0.044717014 -0.0116098225 0.061065473 0.23991424
-0.17895615 -0.08090499 0.1343265 0.14693087 -0.42125115 0.15723881 -0.06192502 -0.1509927
0.05130557 -0.010216996 0.39654553 -0.098106086 -0.4814436 -0.46406522 -0.08379565 0.25610483
-0.26109064 -0.21794374 -0.02674207 -0.08611897 -0.26420254 -0.06800824 0.059865005 0.05921025
0.12638977 0.1283199 -0.13954191 -0.48833087 0.16442418 -0.43506598 -0.17474645 -0.25314963
0.0026184856 0.39829484 -0.30807516 -0.41075826 0.014486954 -0.058726966 0.065669276 0.24788359
-0.066902086 -0.5377548 -0.011140399 0.057313375 -0.0028047115 -0.15809311 -0.20840044 0.04425683
0.08363264 0.08130489 0.18264128 -0.05067897 -0.045871206 -0.21298802 -0.03571525 -0.3530406
00000000: 44ec 87bd 1f94 c8be 7bbb 213e 92e1 3ebf
00000010: c07f 0ebe d0a0 2f3e ca9b 083f 6c5d d83c
00000020: fc38 753d 6e92 83be 52ff 3abd 17f3 683e
00000030: 7a06 143d dfa5 b1bd 717b 48bf ceeb 583c
00000040: bedb 0fbf 11a0 8fbe 771c 8c3d aace 603d
00000050: 67e0 a8be abb5 d7be b380 4cbe c012 413b
00000060: 98e8 68bd 53ec 8c3e c4be dc3d 2372 04bf
00000070: 6675 343e d873 31be b9ca 1dbd 9294 babb
00000080: 3ebe 0ebe e291 1fbe c736 4ebd 11a4 2ebe
00000090: 6a1c 99bc 0a52 743e c8b6 2ebe a5ec adbe
000000a0: 95c7 d3be 1769 ebbd f1aa 72be b7e8 adbc
000000b0: 894b 01bf 113e 88be 78c0 0dbf 85cb 853e
000000c0: 9a35 0abf c27b 1cbe 8119 2a3e 70a0 e53b
000000d0: 8090 2f3c 94e6 9ebe b681 c03d 5afc bdbe
000000e0: 025f 67bd 0bbb 3bbf 8b71 49be 1658 f8be
000000f0: 3fd2 b7be ffcc 143d 00b4 f0bd c336 a4bd
00000100: 9b40 5dbe a2f9 0bbe 5b24 1ebe da49 64bd
00000110: da61 0ebd 752a aa3d 0212 483d 511a 2a3e
00000120: cf8a 6ebe 14f9 0ebd 2159 343e 2c69 123e
00000130: 689d bcbe 5f8a 333e 519b 6cbe 3283 56be
00000140: cda6 acbd 798a d03c 02bb 193f d267 0f3d
00000150: dfb7 e5be a12a e9be 97ea ebbd 5ce5 543e
00000160: 4b34 a0be c70b 14be 8048 c0bb b959 27be
00000170: 8bfb 41be 1dac 75be 51d1 373d 4bb9 04bd
00000180: acc3 763e d8d1 2a3e 6293 be3c 4696 13bf
00000190: b1f3 ea3d 50c9 c8be c405 27be abd6 86be
000001a0: ef94 ba3c 1723 e93e 7b48 dabe 86c5 e4be
000001b0: 9f63 60bd 8657 613d a1cc a13d 000d 683e
000001c0: b6ae 2ebe 7da2 d6be 2821 68bc 913a fc3c
000001d0: 3ec2 7c3d f448 6cbe 1d64 6abe 9b05 973d
000001e0: a994 643e 8be1 3d3e 652a 303e 6044 9f3c
000001f0: 3d5b 93bd e590 a6be 2183 35bd 93e9 09bf
00000200: ae62 6c3d 3c05 e3be a75e 4e3e b46c 19bf
00000210: 5491 3ebe 78dc 723e 0965 073f 9af1 2bbd
00000220: 83a9 b6bc 291e febe 60e7 1f3c cefd 1b3e
00000230: 7389 a43d efda f23c 9dcd 05bf 4cb2 c73b
00000240: 1d86 05bf 138c 90be 0076 063a 0060 a6bd
00000250: 134e b6be 48e3 15bf 54c8 9abd 4370 8c3d
00000260: f3c6 ccbd 5579 223e a967 1a3e 65b6 c6be
00000270: 830a 653e 78ec 12bd 402f 28bb 1b41 93bd
00000280: 9950 e4bd 7243 0fbe 1cd8 ac3c 5aa8 07bd
00000290: c0d6 a5bc ece9 683e 71bc a5be 6c71 8abe
000002a0: 748b c8be c888 96bd ac91 60be 9b48 4c3c
000002b0: b307 02bf 92f8 d8be ec6b f3be d8a8 d93d
000002c0: 35c0 cdbe d93a 0ebf acf1 c13d 15a0 8ebd
000002d0: 4e70 0e3d 3981 1bbe 33b8 b4bd bae1 edbe
000002e0: e1a4 07be 6940 00bf 2da7 8fbd 6347 06bf
000002f0: 8a3d 1bbe e940 853d dd0e 85bc fc0d 93bd
00000300: 95ef 3abe e5bf 67be f2b5 18bd b630 9d3c
00000310: 3029 37bd 2037 3ebc ca1f 7a3d 14ac 753e
00000320: 4840 37be 84b1 a5bd e38c 093e 0c75 163e
00000330: 3bae d7be 3603 213e 17a5 7dbd d59d 1abe
00000340: ca25 523d 3065 27bc 0408 cb3e d8eb c8bd
00000350: c77f f6be f599 edbe 0e9d abbd 2c20 833e
00000360: acad 85be a52c 5fbe 3012 dbbc 245f b0bd
00000370: 8e45 87be e747 8bbd 0235 753d 7286 723d
00000380: 526c 013e 4b66 033e 13e4 0ebe 8106 fabe
00000390: d05e 283e f8c0 debe bcf0 32be d49c 81be
000003a0: e69a 2b3b 4ded cb3e 07bc 9dbe e84e d2be
000003b0: b05a 6d3c b08b 70bd 9d7d 863d 32d5 7d3e
000003c0: f603 89bd 4caa 09bf 3886 36bc 6ec1 6a3d
000003d0: 40cf 37bb 29e3 21be ed66 55be a646 353d
000003e0: 9747 ab3d 2e83 a63d 5106 3b3e c094 4fbd
000003f0: 72e3 3bbd 8819 5abe 274a 12bd bdc1 b4be

fc3.bias f4 [21]
0.793233 0.5196432 0.2564072 0.20062841 0.20025682 0.15335888 0.16834807 0.20108026
0.23349631 0.22087052 0.0878917 0.04788819 0.05159541 0.096188955 -0.05866477 0.07911532
-0.0031398442 -0.019675728 -0.099290356 -0.13338095 -0.03563833
00000000: 5111 4b3f 5607 053f ce47 833e 8971 4d3e
00000010: 2010 4d3e 1c0a 1d3e 7063 2c3e fce7 4d3e
00000020: a819 6f3e e22b 623e 9000 b43d 6826 443d
00000030: b555 533d b7fe c43d 784a 70bd 3707 a23d
00000040: d8c5 4dbb fe2e a1bc be58 cbbd 0495 08be
00000050: 7ff9 11bd
